recommender_model.pth (torch, 17824 bytes, 3 tensors)

user_embedding.weight f4 [19, 64]
00000000: ea30 023e 7cb6 c53f 4537 ffbe 2e7b 983f
00000010: 711f a9be a2c7 2d3f b5f6 34be 47e3 133e
00000020: 4ee9 9c3f 295f 373f 831a 7bbe bddc e73e
00000030: 954b 3640 30f4 47be 5d96 97be ebfa 1e3f
00000040: f6e1 b1bf 484c f43b c2cc 0340 d430 95bf
00000050: 3f08 1ebf ebc6 9dbd 8dab 4d3f 83d6 43bf
00000060: 7abb 413f a8bd d1bf d3d4 de3e 93e0 cd3e
00000070: f374 0f3f 978e 2bbe 29ce 883f d201 e43e
00000080: 2f2c 463f 4b7b 1f3f 117d 0bbf 1520 46bf
00000090: 33aa 453e 5738 b23f ff66 e33e 766e 3e3f
000000a0: 470a 9b3f 9c8b d7bf a5a6 20bf 88af af3e
000000b0: dbc8 43bf 8dd2 833e 29f1 a4bf 130d 0a40
000000c0: bcf8 a3be 27ba e3bf 2be3 b5bc 6936 41bf
000000d0: c9cb b5be a615 0a3f 95da ef3e d7cd 0dc0
000000e0: 2a00 1d3f 852d 2b40 58e7 49bf b9b9 f33e
000000f0: 51b1 8abf 847f a83e cafe 4b3f 9c59 07bf
00000100: e9cc abbe 7990 133f dfd0 b2bf 7ae4 d6bf
00000110: db60 6dbf 764d 493f d810 3c3f ee90 7d3e
00000120: 1a0c 17bf 0fab 30c0 ea44 953f e2ec f4be
00000130: fe65 863f 9a35 a8be a182 2a3f 4211 053f
00000140: 5f32 fb3e cfe1 b3bf 831f 71bf 5fae eabe
00000150: 1544 9d3e 4227 083f 0ced c53e 590c 76bf
00000160: 0fe6 93bf 62e8 2d3f 82c8 efbe c060 eabe
00000170: 4b9c 09bf 5871 9ebf c5da 65bf 9927 a7bf
00000180: 9110 28be a8cf a9be f7b1 0cc0 bc3f 91bf
00000190: 21a6 0abf 1892 44be f2cd 193f 9c29 59bf
000001a0: 20e4 0040 5e0a 0a3f f517 833e 9d77 98bd
000001b0: e77b bcbc 080a 4c3e ff7e 873e c13e 07c0
000001c0: 9315 993e e1b6 f0bd 07f2 87bf 36b8 7e3f
000001d0: acf7 9b3f 0448 e5bf 20c0 91bf 5ef1 43be
000001e0: bc8b ff3e 3b9e d8bf af26 62bc 75f0 2c3f
000001f0: dca0 443f aaf2 50bd 4587 4e3f b681 aa3e
00000200: 6ee3 363f 33e8 01be a6bc adbe dfd9 ac3f
00000210: 7270 2abe ccb6 bcbf e42e ba3e d055 05c0
00000220: 0cbf dd3e bb67 0bc0 8b24 1bbd e05d 1bbe
00000230: 8933 1f3d 093a 02c0 ceed d03e 1af1 b73e
00000240: e1f0 fdbe 58e6 aa3f a521 3e3f 77e4 803e
00000250: 38f2 73bf 7bf0 2abf 5747 483f b547 f53e
00000260: e1ee 1b3f b8f7 efbe 1e7e c8be 843a 81bf
00000270: 42fd a7bf c67a 883d a60f d3bf 4327 e03f
00000280: 8fdd 56bf 11c7 903f e97c b33f 89d4 adbf
00000290: 1e49 e5bd 0c61 883f bc71 b6be a68e 593f
000002a0: 5ac3 3e40 ccf3 8f3f 2c7b b3bf 3cb9 a03e
000002b0: 87bc 74bf 8019 35bf 2ebe 0440 05e2 393f
000002c0: ca95 afbe 2be3 9fbf eafb 7dbe 9694 903f
000002d0: be01 85bf 1f66 25be bdc9 153f 7f7e fc3e
000002e0: 2e53 873f 031a 1fbf dc46 e0bf 6d9f 40be
000002f0: 8ebc bebf b149 27bf 6bf0 9d3f be07 73be
00000300: a3ed 67bf 117c 0340 eab9 ad3f 2ceb 383f
00000310: 0483 453f 637c 80bf 68ec f53e 2776 6b3f
00000320: 748a 8e3f 3de2 cf3e ffe0 42bf 5360 81bf
00000330: 69d8 0f3f 7538 a93f bb62 cf3f 48b3 653e
00000340: 17a1 4dbf e20b 9e3d e99b 513f 82ce 0740
00000350: 71e7 9d3d 3d6b f4be 5c34 033f b1ed 26bf
00000360: 554d 823f d701 0ebf f798 c33e 8745 ce3c
00000370: 1787 4240 cdef 423f 8822 ed3f 99f7 843f
00000380: 62f1 d23f 576e f03e c3e3 823e 230f 6e3f
00000390: 22d3 893f 3eaf 35be 5c8a c53f 157d 09c0
000003a0: 0213 203e 2936 943d f72c 843f 9fb3 6a3e
000003b0: 9add c9bd 7a1e 403e d371 8abe 9dbb 81bf
000003c0: b762 a63f ebe0 433d 0861 56bf 429a 48bd
000003d0: 5874 0e3e a405 c6bf 72c0 bfbf d2b2 43bd
000003e0: f004 143f a42d b03f fc06 47bf 764d b0bf
000003f0: 7ba2 943f da4e f4be 5f5b 83be a25f efbf
0.12713972 1.5446315 -0.49846855 1.1912591 -0.330318 0.6788274 -0.17672236 0.14442168
1.2258699 0.7162958 -0.24521832 0.45285597 2.8483632 -0.19526744 -0.29606906 0.6210162
-1.3897083 0.0074553825 2.0593724 -1.1655526 -0.6173133 -0.07703956 0.8033989 -0.76499194
0.7567669 -1.6386003 0.43521747 0.402104 0.56037825 -0.16753612 1.0687915 0.4453264
0.7741117 0.62297505 -0.5448771 -0.77392703 0.19303207 1.3923444 0.44414517 0.743873
1.2112511 -1.683948 -0.6275428 0.34313607 -0.76478356 0.25746575 -1.2886096 2.157048
-0.32025707 -1.7791184 -0.022203049 -0.7547365 -0.35507038 0.5393928 0.46846452 -2.2156885
0.61328375 2.6746533 -0.7886863 0.47602633 -1.0835363 0.32909787 0.7968565 -0.5287111
-0.33554772 0.5764232 -1.3969992 -1.6788476 -0.92725915 0.7863382 0.734632 0.24762318
-0.5900284 -2.7604406 1.1661656 -0.47836977 1.0499876 -0.32853395 0.66605574 0.5197946
0.49061868 -1.4053286 -0.9418871 -0.4583616 0.30716005 0.531849 0.38657415 -0.9611259
-1.1554583 0.67932713 -0.46832663 -0.4577694 -0.5375411 -1.237834 -0.8978694 -1.3058959
-0.1641257 -0.33166242 -2.198362 -1.1347575 -0.5415974 -0.19196355 0.6007987 -0.84829116
2.0139236 0.5392207 0.25604215 -0.074446894 -0.0230083 0.19925702 0.26464078 -2.1132052
0.29899272 -0.117536314 -1.0620736 0.99499834 1.2184958 -1.7912602 -1.1386757 -0.19135043
0.49911296 -1.6923288 -0.013803168 0.6755441 0.7680795 -0.051012672 0.80675155 0.33302087
0.7144078 -0.12686233 -0.3393299 1.3503989 -0.16644457 -1.4743285 0.363639 -2.0833626
0.4330982 -2.1782062 -0.037876647 -0.15172529 0.038867507 -2.0347922 0.4080643 0.35926133
-0.4959784 1.3351545 0.7427009 0.25174305 -0.9529147 -0.66773194 0.78233856 0.4790627
0.60911375 -0.46868682 -0.3915872 -1.0095983 -1.3124163 0.06664042 -1.648915 1.7511982
-0.8393182 1.131075 1.4022495 -1.3580486 -0.111955866 1.0654616 -0.35633647 0.8498329
2.9806733 1.1246276 -1.4021964 0.31391323 -0.9560017 -0.70742035 2.0741076 0.72610503
-0.34293967 -1.2491201 -0.24803129 1.1295345 -1.0391157 -0.16152237 0.58510953 0.4931526
1.057226 -0.62149066 -1.7521625 -0.18810816 -1.4901292 -0.6534682 1.2338995 -0.23733422
-0.9059698 2.0544474 1.3572361 0.72233844 0.7715304 -1.003796 0.48031926 0.9197716
1.1136003 0.40602294 -0.76124567 -1.0107521 0.5618959 1.3220354 1.6202005 0.22431672
-0.8032393 0.0771711 0.81878525 2.1219792 0.077101596 -0.47738066 0.5125177 -0.6520644
1.017985 -0.5547156 0.3820264 0.025179638 3.0394952 0.76147157 1.8526163 1.0388061
1.6479914 0.46959183 0.25564393 0.92991847 1.0767558 -0.17742631 1.5432849 -2.1482594
0.15632251 0.07236893 1.0326222 0.22920083 -0.0985672 0.18761626 -0.27039966 -1.013538
1.2998875 0.04782192 -0.8374181 -0.048975237 0.13911569 -1.5470471 -1.4980605 -0.04777796
0.57820034 1.3763928 -0.7774503 -1.3773639 1.1612085 -0.4771641 -0.25655648 -1.870106

item_embedding.weight f4 [41, 64]
00000000: 2a55 b3be 6f98 45bf c4aa f53e 9289 aabf
00000010: f2e1 143f 1679 bd3d 04e4 8cbe 93d6 b03f
00000020: a03d 6ebf d938 ce3f 096a f73e ac70 793f
00000030: 1647 3bbf 15fb 8cbf d89e 32c0 447b 793f
00000040: 0cec 99bf c239 1a40 2aaf 15be feff 96bf
00000050: 493b 12c0 21a9 803f 2afb c6bf e945 87bf
00000060: f24c 83bf e4b7 833f 4fec 163f 7d29 753d
00000070: 36a3 a2be 328c 283e b546 c1be e0ad 0b3c
00000080: 769b 723e ea6c 02bf b721 b9bf 7656 00bf
00000090: e877 abbc ee17 a3bf 3118 c13e 7de2 6c3d
000000a0: f978 603f fcdd 62bb 98a1 fb3f 9a48 bf3d
000000b0: e7d6 0a3b 639b 253f dfbe 963e f1f5 d33e
000000c0: 4dac b33f 28a0 57bf 4b75 1940 9915 93be
000000d0: fbe2 f53d e862 853e 06f3 e03f 5948 f93f
000000e0: ece0 51be a47f 67bf fbc8 0c3d c127 843e
000000f0: 3c54 853f 4e57 d23e a645 4abf a4e4 16bf
00000100: 39e9 763f 74a7 bb3f f582 443f ead9 fc3e
00000110: f6ff 973f 3f9d a93e 5871 8b3f 33fe 9bbf
00000120: 9ce8 35bf f999 3dc0 897a e63f a568 d6bf
00000130: 9827 233f 201a 8ebe cda4 2fbf 5360 93bf
00000140: 9685 a53e a954 873f 560d f9bd ad52 73bf
00000150: 445f 1bbe 7c5c 81bf dd56 acbe e597 0e3f
00000160: e63e 7a3f ff40 83be 45b6 2a3f aebb 11bf
00000170: 60f8 443f 48dc 9a3e c0fc a03f 2f43 e03f
00000180: 4104 0f40 9eef b23c 9c6d 073f dac3 83b8
00000190: b681 173f ad5c 273f 8e34 61bf 5e15 85be
000001a0: 54a6 a53f 34f7 863f 7176 0dc0 9d08 d03d
000001b0: e8ab 6ebc d636 ca3e c74f 683e f2db 443f
000001c0: bf1d 5e3f 0f99 bfbf 0651 bdbf b21e 8d3f
000001d0: 8987 f13f b99c debf 94ce 52c0 ff33 25c0
000001e0: 0951 d0bc a80d 0340 1e85 9bbf 590f 9b3e
000001f0: 78ae 083f 7063 f73f db45 8ebe 45b3 e53e
00000200: 3f60 183e 7157 f7be 301b 45be 7ba3 db3e
00000210: 0707 c73e cdbd 12bf 741a a5bf ff51 773f
00000220: 1690 d6be 8a5f a23f 5018 27bf dca7 97be
00000230: b39d 513f b99b af3b 7728 003f 7603 81bf
00000240: 7266 19bf 7a1a 333f 8921 3f3f ac05 c1be
00000250: 64b1 243f 5d6d ed3e 1dc9 68bf 4ceb 1d40
00000260: 1df8 993f 31a3 6dbf 27a6 5f3f 547d 91be
00000270: a593 d9bf e100 3abe 706a b33e d3b0 8ebf
00000280: aabe 27bf 7342 0d40 f44d cc3d b3c5 d93e
00000290: 9385 5fbf f256 83bf bcc1 ee3c 19db 1c3f
000002a0: d09d d1be 6cb5 e8be 5708 353f 7ee4 5fbf
000002b0: b1c6 2b3e 0417 3dbf 5514 3abf ce42 033f
000002c0: ce1b a93f 9957 0340 3980 913e fe26 77bf
000002d0: 42a6 98bf 26cc 27bf dd3b a03f 13b0 7e3f
000002e0: 8e4e ca3f 5b5f d3be 9555 f6be d137 82bf
000002f0: 69ed 61bd f859 7dbf bd81 1940 85a6 f43e
00000300: e2b2 ebbf 9d2f b33e 327f 073e 857c acbf
00000310: ce04 0040 0b19 ea3f 5300 813e 06b1 cf3e
00000320: 4b70 68bd 90ca f33e cf2b d6bf d8ed edbf
00000330: e365 95be 683f a23f 9891 f43e 88c5 8abe
00000340: 26be 85bf 17b7 a23f d062 423f 571a c23f
00000350: 3083 f33f c575 1e3f 6bfc 483d df49 833f
00000360: 9336 56bf 96fd 1bbd f04f 93bd 0213 a63f
00000370: 6c60 13bf ed60 fbbf 65c0 2cbf c8d1 6dbe
00000380: c216 d13e 5cda 70bf c86e 8d3f ac24 57bf
00000390: a184 9fbf 261d 993f a000 87bf 8106 aebe
000003a0: dd22 aa3e 41d1 63be e56e a63f 8c8c dd3f
000003b0: 941c a1be 4845 01c0 2772 673f db54 013f
000003c0: b912 1a3d 7ffe 753f b534 24bf 4c08 1bbe
000003d0: 52fa a13e 04f5 4b3f a9e2 b63f 3c93 ddbf
000003e0: 2a0a 70be a5fb 943f 302d 80bf 173c 83bf
000003f0: 7c30 843f 943d e4bd fcad 4dbf 6f59 b4bf
-0.35025913 -0.7718572 0.47981846 -1.3323233 0.58157265 0.09251611 -0.27517712 1.3815483
-0.9306278 1.6111099 0.48323086 0.9743755 -0.73155344 -1.1014124 -2.790945 0.97453713
-1.2025161 2.4097753 -0.14617601 -1.1796873 -2.2848685 1.0051614 -1.5545399 -1.056821
-1.0257857 1.0290494 0.5895433 0.05985402 -0.31765145 0.1645973 -0.37749258 0.008525342
0.23692116 -0.5094744 -1.4463414 -0.5013193 -0.0209312 -1.2741678 0.3771377 0.057833184
0.8768459 -0.0034617176 1.965869 0.093400195 0.002118522 0.64690226 0.29442498 0.41398576
1.4036957 -0.84228754 2.397784 -0.28727415 0.12006184 0.26052022 1.7574165 1.9475204
-0.20495957 -0.9042914 0.034371357 0.2581158 1.0416331 0.41082233 -0.79012525 -0.5894263
0.9644962 1.4660478 0.76762325 0.49385005 1.1874988 0.33127782 1.0893965 -1.218695
-0.7105806 -2.9625227 1.8006145 -1.6750685 0.6373229 -0.27754307 -0.6861084 -1.1513771
0.3232848 1.0572711 -0.12160747 -0.9504803 -0.1517306 -1.0106349 -0.3366002 0.5570052
0.97752225 -0.25635526 0.6668437 -0.56927 0.7694149 0.30246186 1.2577133 1.7520503
2.2346346 0.021842774 0.52901626 -6.283047e-05 0.591823 0.65375787 -0.8797082 -0.25992864
1.2941384 1.054419 -2.210354 0.10157893 -0.014567353 0.39494962 0.22686683 0.7689811
0.8676414 -1.4968585 -1.4790351 1.1024992 1.8869487 -1.7391578 -3.2938585 -2.5812986
-0.025429266 2.0477085 -1.2149999 0.30285147 0.5339122 1.9327221 -0.2778767 0.44863334
0.14880465 -0.483089 -0.19248652 0.42898163 0.3887255 -0.57320863 -1.2898698 0.9660949
-0.41906804 1.2685406 -0.6527147 -0.29620254 0.81881255 0.0053591398 0.50061744 -1.0079181
-0.59921944 0.69962275 0.74660546 -0.3769964 0.64333177 0.463725 -0.90931875 2.4674864
1.2028843 -0.92827135 0.87362903 -0.2841593 -1.6998183 -0.18164398 0.35042143 -1.1147712
-0.65525305 2.2071807 0.09975806 0.42533645 -0.87313193 -1.0260909 0.029145114 0.61271816
-0.40940714 -0.45450914 0.7071585 -0.87458026 0.16775014 -0.73863244 -0.72687274 0.5127381
1.321161 2.0522215 0.2841814 -0.9654387 -1.1925738 -0.6554588 1.2518269 0.9948742
1.5805223 -0.41283688 -0.4811217 -1.0173284 -0.055158053 -0.98965406 2.3985436 0.47783294
-1.8413966 0.34997264 0.13232115 -1.34755 2.0002933 1.8288893 0.2519556 0.40564746
-0.056747716 0.4761548 -1.6732119 -1.8588209 -0.29179296 1.26756 0.4776733 -0.2710383
-1.0448654 1.2712125 0.75932026 1.5164288 1.902441 0.6189845 0.04906885 1.0256919
-0.83677024 -0.038083635 -0.07192981 1.2974551 -0.57569003 -1.9638954 -0.6748107 -0.23224556
0.40837675 -0.9408319 1.1049433 -0.8404033 -1.246235 1.196202 -1.0547066 -0.33989337
0.33229724 -0.22247793 1.3002592 1.7308517 -0.31467116 -2.0198536 0.9040856 0.50520104
0.03761551 0.96091455 -0.64142925 -0.15139884 0.31636292 0.7967074 1.4287921 -1.7310557
-0.23441377 1.1639296 -1.001379 -1.0252713 1.0327296 -0.111445576 -0.80343604 -1.4089793

fc.weight f4 [1, 64]
00000000: 1dd5 5d3c bf64 86bd 350b 083d 5913 9dbd
00000010: b990 c3bd b8d5 97bc 2e12 023d f467 36bc
00000020: 5a6a 303d eded 983d be6e d6bc b81b 3e3d
00000030: 5bec 1ebd f2d8 5dbb e92e af3d c2dc 54bd
00000040: a06b 03bc 88b2 f3bc cd0c 943d d02d 163d
00000050: 3ca0 99bd 6c0e bb3d dbc1 a9bd 34e9 c0bd
00000060: 4225 7f3d e2e0 c63c 467f a5bc c707 a73d
00000070: 4108 e1bd 122c 243d 0cd5 96bd 49fc cabc
00000080: 8dda 163d 84e9 973c 9297 863d 71af c23d
00000090: 44a8 9d3d d6aa 81bc 266c 3bbd 06a7 c7bd
000000a0: 8b81 11bd 11c4 2c3d 46b8 ac3d e1f6 05bd
000000b0: 9903 873d 2014 b0bd b4e9 e7bd c086 c43d
000000c0: d744 023d 8c65 f7bc fb7e ba3d 63ff 853d
000000d0: c846 473d 8e5f ddbd 4b0d 7d3c b644 b63d
000000e0: 7afd a93d eae7 c2bc 9b4c b63d a573 80bd
000000f0: 437d 983a fd90 963d b437 5cbc 527c 82bd
0.01353958 -0.065621845 0.033213813 -0.07669706 -0.09549088 -0.018534526 0.03175562 -0.011133183
0.043070175 0.07467256 -0.026175853 0.046413153 -0.038799625 -0.0033851233 0.08553869 -0.051968344
-0.008021265 -0.029748216 0.07229004 0.036664784 -0.075012654 0.0913361 -0.08288928 -0.0941948
0.06229139 0.024277154 -0.02020229 0.0815578 -0.109879024 0.04008109 -0.07364854 -0.024778502
0.03682952 0.018543966 0.065718785 0.09506119 0.0769811 -0.015828531 -0.045757435 -0.09748654
-0.035523932 0.04217917 0.08433585 -0.032706145 0.06592483 -0.085975885 -0.11323872 0.09596014
0.031803932 -0.030199789 0.09106251 0.06542852 0.048651487 -0.10809241 0.015445064 0.08899824
0.083003 -0.023792226 0.0890133 -0.062720574 0.0011634011 0.07351873 -0.013441015 -0.063713685
