src/recommender/recommender_model.pth (torch, 17824 bytes, 3 tensors)

user_embedding.weight f4 [19, 64]
000000 5a 48 9a bf 21 ef 83 3f ec 8f 16 3f f1 72 c6 3f
       -1.205333 1.0307351 0.5881336 1.5503827
000010 7c 98 cb be bd ef a4 3f 47 1b 3e bf 9b 62 14 40
       -0.39764774 1.2885662 -0.7426037 2.3185184
000020 96 29 de 3f 06 d0 10 3f 47 39 d0 3e 79 3d 8a bf
       1.7356441 0.5656742 0.406687 -1.080001
000030 ed ab 7f bd 6c 2c 14 be 1c d5 1b 3f 26 25 f7 be
       -0.06241982 -0.1447007 0.60872054 -0.4827053
000040 b1 7f a6 3e f0 f4 0d 3e c1 68 ee be 99 d3 17 3e
       0.32519296 0.13862967 -0.46564296 0.14826812
000050 aa 27 00 be c7 44 b8 3f d7 a6 8c be c9 51 51 3f
       -0.1251513 1.4395989 -0.2747104 0.8176542
000060 d5 9f 5a 3c 4c b2 14 40 ad 13 72 bf 05 85 d8 be
       0.013343771 2.3233824 -0.9456127 -0.42288986
000070 13 a9 bc be 68 2d 32 3f d4 09 50 3f da 69 15 c0
       -0.36847743 0.69600534 0.81264997 -2.3345857
000080 d5 c3 1d 3f 1f d8 84 3f 47 52 ad 3f 23 98 51 3f
       0.6162694 1.0378455 1.3540734 0.8187277
000090 7e 7f 81 bf f4 af 05 c0 fc 46 15 be 3f 9a 89 bf
       -1.0117033 -2.0888643 -0.1457786 -1.0750197
0000a0 2b 6a b0 3f f4 ac ab 3f 75 b9 d4 3f 5a a9 06 be
       1.37824 1.3412156 1.6619097 -0.1315054
0000b0 6a 9e c3 bf 67 1e 07 40 22 99 90 3d 5d b3 f0 3e
       -1.5282719 2.1112306 0.07060458 0.47011843
0000c0 db 15 aa 3e 40 a4 8e be a0 a1 68 3e 72 0b 17 bf
       0.332198 -0.27859688 0.22717905 -0.5900184
0000d0 23 a3 bb 3f 27 81 13 3f 25 6a 52 be 25 47 a9 bf
       1.465916 0.57618946 -0.20548303 -1.3224837
0000e0 8b a9 cf bf 73 7a bc 3e 34 2c 7a be 28 d5 1b 3f
       -1.6223615 0.3681217 -0.24430925 0.60872126
0000f0 e1 43 02 3f f8 6b 53 3e 67 ff 5b 3f 69 58 70 bf
       0.50884825 0.20646656 0.8593659 -0.93884903
000100 15 19 10 bf 01 be f7 bd 15 33 db bc a5 48 04 bf
       -0.5628827 -0.12096787 -0.026757756 -0.51673347
000110 0f 18 1a be 5b ed 17 bf 3c 8c 60 bf d4 df b7 bf
       -0.1504824 -0.5934655 -0.8771398 -1.4365182
000120 fa 35 c5 bf 0f e9 8c 3e 10 b4 de 3e 7e c3 7b 3f
       -1.5407097 0.2752156 0.43496752 0.9834517
000130 f5 98 98 3f ee 02 ac bf 6b 74 53 bf 89 06 4d 3e
       1.1921679 -1.3438394 -0.82599515 0.20022024
000140 80 c6 84 3f 91 b4 b6 3c 8e 29 a0 be 34 c0 07 40
       1.0373077 0.022302898 -0.31281704 2.1211061
000150 a6 f8 95 bf f3 27 74 3f 43 26 30 bf a0 b9 19 bf
       -1.1716506 0.9537346 -0.6880838 -0.60048866
000160 22 b1 83 3f c8 59 cb bf de f4 bf be f1 ea 81 3e
       1.0288432 -1.5886774 -0.37491506 0.2537456
000170 d2 a3 cf be 36 9f 5e bf 3c 14 df 3e 85 87 8f 3f
       -0.40554672 -0.86961687 0.43570125 1.1213232
000180 8c 5b 8f bf 03 39 37 40 d5 cb 1a be f3 5d 45 bf
       -1.1199813 2.8628547 -0.15116818 -0.7709648
000190 c1 31 cf be c8 a8 1f bf d7 1f 3f bf 0d 23 9c 3e
       -0.40467647 -0.62366915 -0.7465796 0.30495492
0001a0 f8 ec 19 40 4b d8 e0 3e 0f 47 db 3f af 75 b0 3f
       2.4050884 0.43915018 1.713106 1.3785914
0001b0 81 b8 73 bf 3e 26 53 bf fa 54 27 3f 98 a0 ff 3f
       -0.95203406 -0.8248023 0.6536404 1.9970884
0001c0 7a 81 d8 3f 7a 42 20 be 24 6c 16 bf 33 68 41 3f
       1.6914513 -0.15650359 -0.5875876 0.7554962
0001d0 1a 35 6e bf 53 68 dc 3f e7 d8 d6 be 13 8d 83 3b
       -0.93049777 1.7219337 -0.41962358 0.00401462
0001e0 ed 4f ec bf ad b1 f1 3e 28 d5 93 bf 35 a4 26 3e
       -1.8461891 0.47205868 -1.1549425 0.16273578
0001f0 72 ec 83 3e 2f e6 32 3f 53 f8 d2 bd e8 48 d4 be
       0.2576633 0.6988248 -0.1030127 -0.41461873
000200 0a 52 a0 3e 93 ce e8 bd 2a 5b fb bf 4c 28 13 3f
       0.3131259 -0.11367526 -1.9637196 0.57483363
000210 ed 4f 93 3f 60 57 1a 40 b2 a3 55 3b e9 46 7b bf
       1.1508766 2.411583 0.003259879 -0.98155075
000220 ec a0 39 bf 98 4d bf bd 12 6e a5 3d 18 f4 ae be
       -0.7251117 -0.09340972 0.08077635 -0.34170604
000230 e7 ec f9 bd 10 9b 7a 3f f2 34 f9 bf 9b 57 3a 3f
       -0.12203389 0.97892857 -1.9469283 0.72789925
000240 a4 0e 85 3f 52 bd 98 3f 36 49 9c bf f6 4d bf 3d
       1.0395093 1.1932776 -1.2209842 0.09341042
000250 56 10 46 3f 8e 2f 4f 3f e4 7b eb bf f0 87 10 3e
       0.77368677 0.8093194 -1.8397183 0.14114356
000260 aa 3b 45 bf d1 41 e9 3f 84 e5 2a be a2 c6 86 bc
       -0.77044165 1.822321 -0.16689116 -0.016452137
000270 8d 71 92 3f 1a 1b 69 bd 7e 8d 89 bf 2f 51 93 3f
       1.1440903 -0.05691061 -1.0746305 1.150915
000280 d5 5b c7 3f de 94 ea 3f 7d 46 c0 3f 36 ad 2b 3f
       1.55749 1.8326681 1.5021511 0.67061174
000290 c8 57 65 bf 57 21 23 bf 39 0d 87 bf 66 23 81 bd
       -0.8958707 -0.6372275 -1.055091 -0.0630558
0002a0 42 ab 4c 3f 12 c6 0e 3f f1 03 8b bf 6b 1d f3 3f
       0.7994882 0.5577098 -1.0860578 1.8993353
0002b0 06 b9 da bf ef 99 83 bf 1c 14 b7 3e c6 e4 f5 bf
       -1.7087715 -1.0281352 0.3575753 -1.9210441
0002c0 85 ba ed bf 8f b9 1e c0 1c 5e 85 3f 61 74 19 3e
       -1.8572546 -2.4800756 1.0419345 0.14985801
0002d0 dc 39 0d 3f fc 63 9a be 26 9a a6 be 70 35 aa bf
       0.5516641 -0.30154407 -0.3253948 -1.3297558
0002e0 03 c2 01 bf f1 9e b3 be c9 75 3f 3e 42 4c 6b 3f
       -0.50686663 -0.350822 0.18697275 0.91913235
0002f0 11 02 cb bf ed ab 23 3f 88 dd 5f 3f ca 8b a3 be
       -1.5860006 0.6393421 0.87447405 -0.31942588
000300 18 76 77 3e 6e 4a f1 be 33 c3 ec 3d fa 5b 92 be
       0.24166143 -0.47127098 0.11560669 -0.28585798
000310 a1 fa ac 3f a3 4c 4f 3f a1 b9 86 3f bb 41 81 be
       1.3513986 0.80976313 1.05254 -0.2524546
000320 17 d2 bd bf 37 c4 b8 3f b1 8d c1 be 6c d0 8f bf
       -1.4829739 1.443488 -0.37803414 -1.123548
000330 96 69 d1 bf 4e c4 84 3f fb 16 55 3f dc 0d 26 be
       -1.6360347 1.0372407 0.8323819 -0.16216224
000340 19 1a 10 40 d5 4e 29 bf 1f d9 dd be 93 9f e2 bf
       2.2515929 -0.66135913 -0.43329713 -1.7704948
000350 9c c7 66 be fb 40 24 3e 0e 4d dc be 7e 44 9e bf
       -0.22537082 0.16040413 -0.43027538 -1.2364652
000360 c9 a1 9c 3f 7b 7a 8b 3f 61 da 87 3f 34 5b 98 3f
       1.2236873 1.0896753 1.0613519 1.1902833
000370 71 96 c8 bf f0 61 9f 3e ad 74 d1 bf 7f 78 6e 3f
       -1.5670911 0.31129408 -1.6363732 0.9315261
000380 63 c6 5c 3e ef ae e8 3f e6 df 6b be 68 77 87 3f
       0.21560054 1.8178385 -0.23034629 1.0583315
000390 6f f4 c1 be 64 0c 65 3f 1f 53 71 bf fd 5e 95 3f
       -0.378818 0.8947203 -0.9426746 1.1669613
0003a0 0b f5 6b bf 10 cc 03 be 23 6d 31 3e dd f5 2c 3f
       -0.9217078 -0.12870812 0.17326789 0.6756266
0003b0 5f 3b 0f c0 44 49 f1 3f d3 94 ab 3f 55 9c 86 3f
       -2.2379987 1.8850484 1.3404793 1.0516459
0003c0 1b 19 c9 bc 7e 84 8c 3d fa 32 a7 3f 20 0d 40 3d
       -0.024548104 0.068612084 1.3062432 0.046887517
0003d0 5d 08 b8 3e d9 48 20 3f 6e d5 8d 3e c2 e5 d7 3f
       0.3594388 0.62611157 0.27701896 1.6866992
0003e0 e3 46 4b 3d c9 3b 88 3e 9f 58 88 bf 5f df 31 40
       0.04962815 0.26608112 -1.0652045 2.7792585
0003f0 9f 2f 9c bf 9a ac 53 bf 78 93 c3 bf 82 7e da be
       -1.2202033 -0.82685244 -1.5279379 -0.42674643

item_embedding.weight f4 [41, 64]
000000 71 a8 9b bf 48 13 1f bf e9 f1 62 3e af 39 13 bd
       -1.2160779 -0.62138796 0.22162594 -0.035943683
000010 b5 5d ce 3f cc 7d bd 3e cd c0 0f 3f 89 71 a0 bd
       1.6122347 0.37010038 0.56153566 -0.07834155
000020 b3 3d d3 be bb f2 66 bf 12 7d 6c 3f 69 97 fb bd
       -0.4125801 -0.9021413 0.9237834 -0.122847386
000030 12 08 87 bf 95 91 33 bf 84 eb 80 be 68 2d fb 3f
       -1.0549338 -0.70144016 -0.25179684 1.9623232
000040 3f ee 9f 3f 99 e3 22 bf 21 a2 ed 3e 7c b5 81 3f
       1.2494582 -0.63628536 0.46412757 1.013351
000050 31 ff b7 bf 36 10 00 c0 62 74 d9 3f 85 15 f9 bf
       -1.4374753 -2.0009894 1.6988642 -1.9459692
000060 a1 c2 ee bf 05 bb cd 3f b2 18 6b bf 94 52 6b 3e
       -1.8653146 1.6072699 -0.9183456 0.2298072
000070 11 30 cb 3f cc 40 d3 3f 64 d6 d1 3e 60 21 80 3f
       1.5874044 1.650415 0.4098388 1.0010185
000080 d9 69 95 3f 89 00 96 be b7 14 96 be ac a0 8f bf
       1.1672927 -0.29297283 -0.2931268 -1.1220908
000090 b1 81 f5 3f 02 b1 af 3e 97 a6 71 3e 3d 22 0a c0
       1.9180204 0.34314734 0.23598705 -2.1583397
0000a0 f6 bd 97 3f d7 8d 5c bf 4a b2 d0 3e 5b c9 cf bf
       1.1854846 -0.8615393 0.40761024 -1.6233324
0000b0 e5 d9 af 3e 36 54 be be 28 fe 8b 3f 5c aa b2 3f
       0.34345928 -0.37173623 1.0936937 1.395824
0000c0 d8 6b 83 3f b2 5f aa 3f c1 7c b1 bd 4c 89 39 3f
       1.0267286 1.3310454 -0.08666373 0.72475123
0000d0 2f a6 16 3f 70 ba 0e 3f 94 6f a7 bf ac d1 e0 bf
       0.58847326 0.5575323 -1.3080926 -1.7563987
0000e0 5b 92 4c be 97 0e 75 3f 96 89 bb 3f c9 47 0f 3f
       -0.19977705 0.9572539 1.4651363 0.5596891
0000f0 46 10 62 bf 99 bb 2b be 93 57 8d 3f a1 42 78 bf
       -0.8830608 -0.16770782 1.104235 -0.9697667
000100 3e a1 a4 3e f4 3b d0 bd e5 79 51 3f 62 e6 a6 3f
       0.32154268 -0.10167685 0.8182662 1.3039057
000110 2f 51 93 bf 60 49 a5 3d da 83 ff bf e8 17 a3 bd
       -1.150915 0.08070636 -1.9962113 -0.07963544
000120 79 77 30 3f fb aa 23 3f 76 da ec 3e 85 b0 65 3f
       0.689323 0.6393277 0.46260422 0.8972247
000130 6b 81 a5 be dc 81 ed 3f e7 26 7a bf 39 a8 b6 be
       -0.323253 1.8555255 -0.9771561 -0.3567522
000140 d0 82 37 3f 92 bc 94 3d df 92 06 bc 75 99 d3 3e
       0.7168398 0.072625294 -0.008213728 0.41328016
000150 49 6c c4 bf 14 4a cd be b7 cb b3 3f 8d 7b a7 be
       -1.5345546 -0.4009558 1.4046544 -0.3271145
000160 82 98 03 c0 6d 20 d2 3e c5 d5 3f 3f 27 b8 a7 bf
       -2.0561833 0.41040364 0.7493556 -1.3103074
000170 02 59 cd 3f 11 b3 fa be cb d7 c6 bf 62 37 46 be
       1.6042788 -0.48964742 -1.5534605 -0.19357064
000180 63 dc 79 bf a3 bd 34 3f 85 ee 44 3f e1 54 10 c0
       -0.9760191 0.7060186 0.7692645 -2.2551806
000190 58 96 f0 3d 85 db c6 3e 99 64 57 bf dc 9b 77 3f
       0.11747426 0.38839355 -0.84137875 0.967222
0001a0 cd f3 5c be d3 93 00 3f ee 14 6c be 34 3d 73 bf
       -0.21577378 0.5022556 -0.23054859 -0.95015264
0001b0 c5 86 37 bd ec b3 b6 bf 6d 83 61 3e af 5f 5e 3f
       -0.04480626 -1.4273658 0.22022791 0.8686475
0001c0 89 11 86 be 9e f1 15 40 de f5 63 bf 38 32 d1 3f
       -0.26185253 2.3428721 -0.8904704 1.634345
0001d0 9e 20 29 3f c8 bd 9c 3e f6 d7 22 be 89 fa f8 be
       0.66065395 0.30613542 -0.15902695 -0.48628643
0001e0 41 df b0 bf bb 66 c4 bf fd 7c a6 3d 1c 08 a2 3e
       -1.3818132 -1.5343851 0.081293084 0.31646812
0001f0 b3 85 05 be 5a 3d 8b be b2 0f 07 3f f7 0f 7b 3f
       -0.13039283 -0.27195245 0.52758324 0.98071235
000200 de 07 70 bf c9 26 53 3e e6 04 fb 3f fa c5 e6 3e
       -0.93762004 0.20620264 1.961087 0.4507292
000210 9c 51 70 bc 80 9b b7 3f ac 75 49 3f 83 79 fe 3e
       -0.014667895 1.434433 0.7869518 0.4970208
000220 dd 44 36 3f 02 4c ec 3f 81 97 0d 3f 17 69 89 bf
       0.7119883 1.8460696 0.553093 -1.0735196
000230 97 06 00 be 63 ee 86 bf 4c 30 91 3f b5 9e b4 be
       -0.12502514 -1.05415 1.1342864 -0.35277334
000240 f4 f3 17 40 f5 8a ac 3e a7 77 5b 3f 2a 34 6d 3e
       2.3742647 0.33699766 0.8572945 0.2316443
000250 42 37 b9 bf fd 6c a9 3f 1a b0 a2 3f 1b 81 d6 3e
       -1.4469988 1.3236386 1.2709992 0.41895375
000260 11 af 84 3e f3 2a 08 bf 17 04 44 3f 41 4c 2e 3f
       0.25914815 -0.53190535 0.7656874 0.68085104
000270 00 ba 6f bf 6b b2 bb bf 4f 52 de 3d bd 90 43 bf
       -0.9364319 -1.4663824 0.10855543 -0.7639273
000280 0f f7 5a 3f 35 77 b7 3d eb bd 17 3f fc 23 16 bf
       0.8553323 0.08958284 0.59274167 -0.5864866
000290 fa 9a b5 3e 1f ea c0 be 4d 52 49 40 62 3f b1 bf
       0.354698 -0.3767862 3.1456482 -1.3847468
0002a0 6d 01 c3 bf 6d c5 87 bf ba 3d 10 40 eb fb ae bf
       -1.523481 -1.0607125 2.2537675 -1.3670629
0002b0 77 ca 8e bf c9 26 6c 3f a7 6e 96 3f cd 6e d1 3d
       -1.1155537 0.9224668 1.1752518 0.10226212
0002c0 80 fd 28 3f 37 a6 13 c0 c3 dd 75 bf f4 32 a0 bd
       0.6601181 -2.30702 -0.96041507 -0.078222185
0002d0 73 b9 09 be d5 05 c6 3c a0 18 6e bf 37 e0 c9 3f
       -0.1344965 0.024172703 -0.93006325 1.577155
0002e0 53 ec 12 3f 64 5f 36 3f 82 14 21 bf ef 64 be 3f
       0.5739185 0.71239305 -0.6292192 1.4874552
0002f0 86 e4 8a 3f c0 ab 15 40 d6 45 2d bf 54 e7 2d 3f
       1.085099 2.3386078 -0.67684686 0.67931104
000300 5f 72 42 3e b2 7f 1b be b6 ad eb 3d df 49 f3 3e
       0.18988942 -0.1518543 0.11507742 0.47517297
000310 69 24 aa 3f a1 af b3 bd 1c 78 5d 3d 5b 5e 00 3f
       1.3292361 -0.08773733 0.054069623 0.50143975
000320 5b 46 68 bf 24 5d 28 3f 13 30 80 3f 33 02 c1 3e
       -0.90732354 0.6576712 1.0014671 0.3769699
000330 a5 61 87 bf af 3c 1b 40 68 36 68 3e ae 8a 94 be
       -1.0576674 2.4255788 0.22677004 -0.29012054
000340 1a a5 4c be 69 83 36 bf c3 4a d3 3e 7c 90 19 be
       -0.19984856 -0.71294266 0.41267976 -0.14996523
000350 dc f9 91 3f 07 2d 9e bf fe d6 66 bf ed 9d 69 bf
       1.1404376 -1.2357491 -0.901718 -0.912566
000360 11 e9 28 bf 54 2f 81 bf 6f 2e f3 3f 63 eb 9a 3e
       -0.6598063 -1.0092568 1.8998545 0.3025771
000370 48 d3 64 3f 0d f7 68 3f 2a 1a 89 be 04 8c 9f bf
       0.8938489 0.9100197 -0.26777774 -1.2464604
000380 23 cf 2b bf 55 54 6b bf 6a ad 10 3f 7b 56 00 40
       -0.6711294 -0.91925555 0.5651461 2.0052783
000390 2e 8a 93 3f 5d 37 85 3f 76 a4 22 3f 2f 1f 20 3f
       1.1526544 1.040752 0.635322 0.6254758
0003a0 1c d2 05 3f b0 8e c9 3f 51 f8 3c bf 47 e2 fc 3e
       0.52273726 1.574667 -0.738164 0.49391386
0003b0 2e 8c 66 bf f1 f7 2f be 50 bd 82 3e 6b 3b 65 3d
       -0.9005765 -0.17184426 0.2553506 0.05596487
0003c0 4c dd 62 3f 56 71 2c 40 13 f0 4d 3f 4e f8 c4 3e
       0.8861892 2.6944175 0.8044445 0.3847069
0003d0 1d f6 ee bd 93 5d c7 bd 94 da 25 be 70 11 0a 3f
       -0.11668036 -0.09734645 -0.16196662 0.5393286
0003e0 9c 4d f6 3f 5c d5 b2 be 72 7a 55 bf 0f 59 18 3f
       1.9242435 -0.34928405 -0.8338996 0.5951089
0003f0 9f 5b 41 c0 67 73 70 bb bb a0 a8 3e c5 db 4f 3f
       -3.021217 -0.003668988 0.32935128 0.81194717

fc.weight f4 [1, 64]
000000 c5 c6 09 3d d0 95 44 bd f7 95 a6 bd 94 71 80 bd
       0.033636827 -0.047994435 -0.08134072 -0.06271663
000010 df 17 92 3d dc ef f3 bc 56 dc 9c bd 72 b9 24 bd
       0.07133459 -0.02977746 -0.07659213 -0.040215917
000020 e9 2e ab 3b 9e f2 ec 3c 47 32 c2 bd ec 0f cf 3c
       0.005224098 0.028924283 -0.09482246 0.025276147
000030 18 fb 61 3d c8 4d 45 bc 17 e9 03 3d c7 e8 cd 3d
       0.055171102 -0.01204247 0.032204714 0.100541644
000040 d9 9b c9 39 91 a2 95 3d fb 9f 46 bd 57 f3 6d bd
       0.00038453823 0.07306398 -0.048492413 -0.058093395
000050 de 18 0e bd d3 7a a6 bc 90 90 a2 3d 30 12 c4 3d
       -0.034691684 -0.020322239 0.07937729 0.095737815
000060 ed 46 d0 3d 8d 63 5e bd c2 0c 38 3d 1b 77 6a 3d
       0.10169778 -0.054294158 0.04493404 0.057242494
000070 a1 1f 82 bd ee 2a e5 3d 76 e6 5c 3d ea 8d 43 3c
       -0.06353689 0.11189829 0.053930722 0.01193569
000080 39 1a 8d 3c ae b9 6c bd fd 3d 89 bd e5 56 4b 3d
       0.017224418 -0.057794265 -0.067012765 0.049643416
000090 db 1e ca bd 60 a5 b1 3d 8d b5 14 3d f5 11 0a bd
       -0.098691665 0.08674121 0.036305953 -0.03370853
0000a0 c9 83 87 3d a7 3f 58 bd c1 16 a2 bd 38 d4 68 bd
       0.06616933 -0.05279508 -0.07914496 -0.056843013
0000b0 62 df 71 bd b9 12 2e bd 43 9a 85 3c fb 64 a7 bd
       -0.059050925 -0.042498324 0.01630891 -0.08173557
0000c0 dc 4d 31 bd e7 9e 81 bd 96 5a a5 bc f5 92 d8 3d
       -0.043287143 -0.06329136 -0.020184796 0.10574905
0000d0 3a 80 a6 bd 6b 3d ad bd bb ec a4 bd b0 ce ac 3d
       -0.08129926 -0.0845898 -0.08052965 0.0843786
0000e0 45 8d 91 bd 1f 03 95 3b e8 8a d9 3d 75 4b 3b 3d
       -0.07107023 0.004547491 0.106221974 0.04572626
0000f0 19 a5 7b bd ad 20 d2 3d 26 55 8f 3d d9 37 23 3d
       -0.061436746 0.10260139 0.06998663 0.039848182
